6.MachineLearning/Snake-AI/weights/snake.pt (torch, 3911 bytes, 6 tensors)

fc1.weight f4 [16, 20]
00000000: 8475 5ebd 5496 3d3e 3cda 623d c323 553d
00000010: dc94 fe3c ea43 0b3f 57d2 633f 62cd 0b3f
00000020: d96a 6bbf 2eff e5be 4914 37be 0c97 35be
00000030: 19a2 c6bf 59c8 47bd 7dd0 ddbd 972b b43b
00000040: 2aa6 e8bd 12d1 723b 6bb0 413e bb5a 26bc
00000050: aa64 b3bc 21e1 513d 29be b0bd 5fb2 c03c
00000060: 254e 603e 26dc 69bd ee2a 093f 5106 eb3e
00000070: 8b74 573f ed2b fa3e f11f 2cbf ccd0 99be
00000080: 38ae 113d d758 793e 0390 603e d5ed e63d
00000090: 9969 593d 8bff 823d a788 c83d 2c80 3bbd
000000a0: b759 0b3d e286 f8bc 25f6 0d3e f8ba 763e
000000b0: 8a07 c93d bc77 f1be e233 71bf 1b70 adbe
000000c0: 9775 a13f f8a3 383f 4ecf e9be f57b d0bc
000000d0: ba02 5abe 9bcf 383d 84d0 a73d 1d39 253d
000000e0: 61f5 4bbd 81bd 103d ec45 ad3c 177b 0fbc
000000f0: b6b5 8c3d f840 0e3c 2a3c 743d 3146 a1bc
00000100: 9c3f 5e3e 2cf0 933e 2cac 523f f9b7 063e
00000110: 4a92 f53e b6e9 c73e 6275 4cbf 7ae2 9dbe
00000120: ed73 663e d73d 9a3b b88f d4bf 3fc6 d5bb
00000130: 0942 8abd 0253 703d 68f5 a53e d4c7 c83c
00000140: dfbb 183d 6cce 293c 2ba1 453c 4492 84bf
00000150: e4ae 0fb9 06d7 fcbd bce0 91bd ef26 21be
00000160: 1004 2bbe 8ef7 19bd 3fdf 78be d51f 6d3e
00000170: cbd3 62bf 7081 23bb ac99 913b f472 92ba
00000180: 80fe 863e 7e18 9dbe 5bf9 b0bd 71a9 64be
00000190: 98d4 2b3e f351 a4bd 63c3 76bf 308a 8ebd
000001a0: 09ce 89be 1c08 8abe 18e3 fbbe 03a9 b0bc
000001b0: 6fa5 6ebd 1afb fcbb dddf c13e 0f7c 9d3e
000001c0: cfe2 a13c d7a3 3b3a 04f8 04bf a0d5 9ebe
000001d0: fd1b 91be 64b0 37be cae6 9e3b a10b 1d3b
000001e0: 93d5 13bd d863 f53d 6c38 063e 4fc7 b03b
000001f0: e321 223c dadd 30bf 459d 5abf 768e 43bf
00000200: aa9c 533e f9cf 823c f920 4f3f 59f0 0e3f
00000210: 8a04 e7be 410f 43bc f064 dcbb 7fd1 20bd
00000220: a74d 083e 083b 053e cd17 20be 334f e73d
00000230: bfde 023e eb36 d6bd d4b1 e53d 4e80 e1bd
00000240: 8e8c 4a3e 6800 323c d309 073f fa31 acbd
00000250: 4e9a 553e 6401 f63d 6b0b ed3d fb7e 103e
00000260: 31f6 c53e db0c 883a 50fc e3bd 0351 dc3c
00000270: bd55 3dbd 6482 383b 6c89 633d 3558 7e3c
00000280: 6eb9 89be f530 3cbd 0f61 cd3d d4a7 a53d
00000290: a4f4 77bf a2ed b03e 4ab7 873e 1012 953e
000002a0: 612f 3ebf 6984 26be 0e64 db3d 43b1 8a3e
000002b0: 42f4 e1be e3ee 5ebe 7052 4c3e 1bc5 6c3d
000002c0: bf2f ef3d 2cfb 0cbb 9646 4bbd 47de b63d
000002d0: 5e36 e63d ff1f 8f3e d158 d43d 4c18 cebd
000002e0: aa5f 653e 5b7c 85be 112b 87bf 293f dcbe
000002f0: 552e f23e 25f2 6e3e ca11 6c3e 124a 96bd
00000300: ee16 713f f8a9 cd3c 3f28 d63c e079 aa3d
00000310: 29ba c63d d43e a03b 46fb ccbd e458 0c3e
00000320: fbb4 163e 9150 b43d 00b6 223e edfb babc
00000330: a55f 103e 8fb7 a33e ab70 983f 6b3f f13e
00000340: d42b 8abf 983a 31bf 010b 2abe d066 b2bd
00000350: 941e 8fbe 35ff 083e 23f8 0e3e 81c4 7b3d
00000360: 2b7f 7c3e 2ba9 113e bc9c b43e 3ada 813e
00000370: 5746 0bbe 26f4 103e 83a9 3abe 63c0 3b3e
00000380: 7cd4 023e 9bc1 333c c8a0 7abf 3cbe bfbe
00000390: 1b13 83bf c090 02bf 7925 993f 365d 043f
000003a0: 8057 923d d7c0 253e 4cea e73d cf69 b73d
000003b0: c0ee 2cbd 2e97 343c cf60 e33a 9149 edbc
000003c0: 3c84 363e d382 4e3e 8bde 1cbd 435b debc
000003d0: c31a bebf 3dac 06bf baed 40bf c178 4abf
000003e0: 204a 01bf 8503 f13c 89eb b33e 6516 8d3e
000003f0: 25ba 31bf ecfd a13d 3710 43bd 983c 543d
-0.05431129 0.18514377 0.055383906 0.05203606 0.031076841 0.54400504 0.8899283 0.54610264
-0.9195991 -0.4492125 -0.17878832 -0.17733401 -1.5518218 -0.04877505 -0.108307816 0.0054983604
-0.11359818 0.0037050885 0.18914954 -0.010153468 -0.021898586 0.05124009 -0.0863002 0.023522554
0.2190481 -0.057094716 0.5358113 0.45903257 0.84162205 0.48861638 -0.6723624 -0.30042112
0.03556654 0.24350296 0.21929936 0.112758316 0.05307922 0.06396397 0.09791689 -0.04577653
0.034021106 -0.030337755 0.13863428 0.2409476 0.09815891 -0.47161663 -0.9421979 -0.33874592
1.261401 0.72125196 -0.45665973 -0.025449732 -0.21290103 0.045119863 0.08194068 0.04033767
-0.04979456 0.035336975 0.021151505 -0.008757374 0.06870596 0.008682482 0.05962769 -0.01968679
0.21703953 0.28894174 0.82293963 0.13156117 0.47963172 0.39045495 -0.7986661 -0.3083685
0.2250516 0.004707079 -1.660636 -0.006523877 -0.067508765 0.058672912 0.32413793 0.024509348
0.037288543 0.010364156 0.012062351 -1.0357137 -0.00013702695 -0.123457 -0.07122943 -0.15737508
-0.16700768 -0.037589602 -0.24303912 0.23156674 -0.8860442 -0.0024948977 0.004443368 -0.0011173175
0.26366043 -0.3068275 -0.08641311 -0.22330262 0.16780317 -0.08023443 -0.96391886 -0.06959951
-0.26915005 -0.26959312 -0.49196696 -0.021564966 -0.05826324 -0.0077203633 0.37866107 0.30758712
0.019761471 0.0007157898 -0.5194094 -0.31022358 -0.28341666 -0.17938381 0.0048492895 0.002396323
-0.036092352 0.11981934 0.1310746 0.005394853 0.009895775 -0.6908852 -0.85396224 -0.76389253
0.20665231 0.01596831 0.8090969 0.5583549 -0.4512065 -0.011905492 -0.0067259 -0.03926229
0.13310872 0.130108 -0.1563408 0.11294403 0.12780283 -0.104596935 0.11215559 -0.110108
0.1978018 0.010864355 0.52749366 -0.0840797 0.20859644 0.12011984 0.115744434 0.14110939
0.38664392 0.0010379808 -0.11132109 0.026894098 -0.046224345 0.002815389 0.055550978 0.01552396
-0.26899284 -0.045945127 0.10028278 0.08088651 -0.96857667 0.345563 0.26507026 0.29115343
-0.74291044 -0.16261448 0.10712443 0.27088365 -0.44131666 -0.21770816 0.19953322 0.057805162
0.11679029 -0.0021512015 -0.049627863 0.08929115 0.112408385 0.279541 0.10368503 -0.10063228
0.22399774 -0.26071438 -1.0560018 -0.43016937 0.47300974 0.23334558 0.23053661 -0.073383465
0.9417561 0.025105461 0.026142238 0.08324027 0.09703476 0.004890302 -0.10008864 0.13705784
0.14717476 0.08804429 0.1588974 -0.022825206 0.14098985 0.31975982 1.1909384 0.47118697
-1.0794625 -0.6923003 -0.1660576 -0.08711016 -0.27953017 0.13378604 0.13961844 0.061466698
0.24657886 0.14224689 0.3527583 0.25361806 -0.13601051 0.14155635 -0.18228726 0.18335108
0.12776369 0.010971452 -0.9790158 -0.37449825 -1.0240206 -0.5100212 1.1964561 0.5170473
0.071455956 0.16186844 0.113239855 0.08955728 -0.042219877 0.011022372 0.0017347577 -0.028965743
0.17823881 0.20167093 -0.03829817 -0.027143126 -1.4851917 -0.52606565 -0.7536274 -0.79090506
-0.5050373 0.029420624 0.35140637 0.27556148 -0.6942466 0.0790976 -0.047622886 0.0518156

fc1.bias f4 [16]
00000000: 8007 833d a62e 603e f1fa 673e 9238 72be
00000010: b010 15be 661c abbe 6a3e 01be c257 343b
00000020: c606 b23d 3b12 3d3e 482a d5bc ccab 053e
00000030: 10a9 313e 1cf4 1d3e 8c64 0cbe 034b 2cbd
0.06397915 0.21892795 0.2265432 -0.23654392 -0.14557147 -0.33420104 -0.12621465 0.0027518128
0.08692698 0.18463986 -0.026021138 0.13053817 0.17349648 0.15425152 -0.1371023 -0.042063724

fc2.weight f4 [8, 16]
00000000: 3cc8 3f3e b790 6ebc 73cf 74be 9691 063e
00000010: c122 30bb 1805 73be 856d 623d ab22 83be
00000020: ab31 b83e 46df b1bd 2e14 0abd 7999 693d
00000030: 3112 8abd 8bc3 56bd f786 3abd a98d 633d
00000040: 2360 32be 6f47 fe3d 20ea 023e 7c50 69bd
00000050: 192f bcbe dff1 46bf 3eb4 083e 86f6 26be
00000060: 69fc 153d 9b66 bf3d 8344 58be b2ee 53be
00000070: a7ec d43d 7084 073f 649b 64be cc58 d1bd
00000080: 5208 8c3e e5c2 363e 4cee 343e 454e f03d
00000090: 5528 383d 3184 82bf 0323 dfbd ff34 6f3e
000000a0: 8f27 143e 64d5 013d 3a13 833e 2dd0 7abe
000000b0: 4c63 93bd 34b6 8cbe b0cc a5be 0392 ff3d
000000c0: 78b5 913d a2f2 1abe 57cc a3bd f3e2 9cbe
000000d0: ce1a 62bf 4c74 103f f7b8 6c3e 667b 64bd
000000e0: b57a c23d b0c8 94be dddd 243d 25f9 213e
000000f0: 597b 983e 62d6 32be 2391 0a3e fd95 43be
00000100: e64a 25bd 6bf7 ad3d 3757 c6bc 587a 06bd
00000110: 31db 1f3e 7ab0 4bbf efe8 16be f7a8 473e
00000120: d11f a43b d0e0 d23d 4ea5 703e 6e97 1bbe
00000130: 7f32 0d3e 4be4 9f3d 2c2b a8be fb16 3ebe
00000140: f5c4 83be 441e 02be 8f21 683d bd03 103d
00000150: 6c45 2c3e de47 633f 9b25 323e e2fe b7be
00000160: 2fa3 a23d 9b5b 9b3e 4a73 b03b f219 b23e
00000170: e497 8f3d ec25 c2bd 25e1 d63e 2b12 ef3d
00000180: 0624 54be 8fde 863d 3d89 fb3d 59cc 313e
00000190: e056 d3be 0892 63bf 804a a73d 4ebb dbbe
000001a0: 8f00 45bc 54ab b3bc 1c9c 69bd b271 b9be
000001b0: 644a 3f3e 70e5 013e 6df9 d6bc 766f afbd
000001c0: 6ae8 5abe 9050 23be aa60 58be e070 babd
000001d0: e078 f43d bc57 20be dedc 4dbe 2e4c 36be
000001e0: 2642 703e 9aad 5dbe c65f 15be 46b7 5bbe
000001f0: b8b0 6abd 3035 8bbc 5e46 3bbe c22e 54be
0.18728727 -0.01456087 -0.2390726 0.13141474 -0.0026876184 -0.23732412 0.055280227 -0.25612387
0.35975394 -0.08685164 -0.03371065 0.05703113 -0.06741751 -0.052432578 -0.04553887 0.05555502
-0.17419486 0.124159686 0.12784624 -0.05696152 -0.36754683 -0.77712816 0.13350007 -0.16304979
0.03661767 0.09345742 -0.21119885 -0.20696524 0.103967 0.5293646 -0.22324902 -0.10222015
0.27350098 0.17847784 0.17669028 0.11733679 0.04496034 -1.0196592 -0.1089535 0.2336006
0.14468215 0.031697646 0.25600606 -0.24493475 -0.07196674 -0.2748276 -0.32382727 0.124790214
0.071146905 -0.1513162 -0.07997959 -0.306419 -0.8832215 0.56427455 0.23117433 -0.055781744
0.09496061 -0.29059362 0.040250648 0.15817697 0.29781607 -0.17464593 0.13531928 -0.19100185
-0.04035463 0.08494457 -0.02421151 -0.03283152 0.15610959 -0.79566157 -0.14737295 0.19498049
0.0050086756 0.10296786 0.23500559 -0.15194485 0.13788794 0.07807215 -0.32845438 -0.18563454
-0.25736204 -0.12706858 0.05667263 0.035159815 0.16823357 0.88781536 0.17397158 -0.35936648
0.07941281 0.30343327 0.0053848373 0.3478542 0.07011393 -0.09479889 0.41968647 0.11673387
-0.20716867 0.065854184 0.122820355 0.17363109 -0.41277218 -0.888947 0.081685066 -0.4291634
-0.012024059 -0.021932282 -0.057033643 -0.36219555 0.18680722 0.1268518 -0.026241982 -0.08566181
-0.21377721 -0.15948701 -0.21130624 -0.091035604 0.119371176 -0.15658468 -0.20103785 -0.17802498
0.23462734 -0.21648255 -0.14587316 -0.21456632 -0.05729744 -0.016993135 -0.18288562 -0.20720962

fc2.bias f4 [8]
00000000: a0a0 b2be 5e6d cc3c 2455 26be 5e91 11bd
00000010: 827b 293e a1e5 45be 31f8 54bb c0b4 f73c
-0.34888172 0.024954494 -0.16243416 -0.035539024 0.1655102 -0.19325878 -0.0032496566 0.030237556

fc3.weight f4 [4, 8]
00000000: 8724 1c3e e35c 483e 5852 92be 65de 343d
00000010: 6ab2 5d3e 117a a3be 7a7e 9b3e dd74 953e
00000020: c556 c23f a441 12bf 97ab a23e 676b 933e
00000030: 7c19 ce3e 0822 bdbe ae2a ef3d 0fdb e1bd
00000040: e4d3 79bf f56d 3c3f 481c 0e3e 8aa5 03bf
00000050: ff9a 0e3e 31df 48bd 772f b93e d05c 8e3e
00000060: 6062 85bf 44f2 19be a227 cbbc d595 3a3f
00000070: 7dfe d3bd 57b4 7b3e f5fc afbe f469 abbe
0.15248309 0.19566683 -0.28578448 0.044157404 0.21650091 -0.31929067 0.3036993 0.29190722
1.518273 -0.5713141 0.31771538 0.2879288 0.40253818 -0.36940026 0.116780624 -0.1102811
-0.97588944 0.7360528 0.13877976 -0.5142447 0.13926314 -0.049040977 0.36169025 0.27805185
-1.0420647 -0.15033823 -0.024799172 0.72884876 -0.10351274 0.24580513 -0.34372678 -0.33479273

fc3.bias f4 [4]
00000000: b8d4 ecbd 0e0d 123e 033c ecbd ae70 89be
-0.115640104 0.14262792 -0.11534884 -0.2684378
